weights/LSTMAD/run.pth (torch, 333537 bytes, 34 tensors)

h_t f8 [1, 32]
000000 00 00 00 00 00 00 00 00 00 00 00 00 00 00 00 00
       0.0 0.0
000010 00 00 00 00 00 00 00 00 00 00 00 00 00 00 00 00
       0.0 0.0
000020 00 00 00 00 00 00 00 00 00 00 00 00 00 00 00 00
       0.0 0.0
000030 00 00 00 00 00 00 00 00 00 00 00 00 00 00 00 00
       0.0 0.0
000040 00 00 00 00 00 00 00 00 00 00 00 00 00 00 00 00
       0.0 0.0
000050 00 00 00 00 00 00 00 00 00 00 00 00 00 00 00 00
       0.0 0.0
000060 00 00 00 00 00 00 00 00 00 00 00 00 00 00 00 00
       0.0 0.0
000070 00 00 00 00 00 00 00 00 00 00 00 00 00 00 00 00
       0.0 0.0
000080 00 00 00 00 00 00 00 00 00 00 00 00 00 00 00 00
       0.0 0.0
000090 00 00 00 00 00 00 00 00 00 00 00 00 00 00 00 00
       0.0 0.0
0000a0 00 00 00 00 00 00 00 00 00 00 00 00 00 00 00 00
       0.0 0.0
0000b0 00 00 00 00 00 00 00 00 00 00 00 00 00 00 00 00
       0.0 0.0
0000c0 00 00 00 00 00 00 00 00 00 00 00 00 00 00 00 00
       0.0 0.0
0000d0 00 00 00 00 00 00 00 00 00 00 00 00 00 00 00 00
       0.0 0.0
0000e0 00 00 00 00 00 00 00 00 00 00 00 00 00 00 00 00
       0.0 0.0
0000f0 00 00 00 00 00 00 00 00 00 00 00 00 00 00 00 00
       0.0 0.0

c_t f8 [1, 32]
000000 00 00 00 00 00 00 00 00 00 00 00 00 00 00 00 00
       0.0 0.0
000010 00 00 00 00 00 00 00 00 00 00 00 00 00 00 00 00
       0.0 0.0
000020 00 00 00 00 00 00 00 00 00 00 00 00 00 00 00 00
       0.0 0.0
000030 00 00 00 00 00 00 00 00 00 00 00 00 00 00 00 00
       0.0 0.0
000040 00 00 00 00 00 00 00 00 00 00 00 00 00 00 00 00
       0.0 0.0
000050 00 00 00 00 00 00 00 00 00 00 00 00 00 00 00 00
       0.0 0.0
000060 00 00 00 00 00 00 00 00 00 00 00 00 00 00 00 00
       0.0 0.0
000070 00 00 00 00 00 00 00 00 00 00 00 00 00 00 00 00
       0.0 0.0
000080 00 00 00 00 00 00 00 00 00 00 00 00 00 00 00 00
       0.0 0.0
000090 00 00 00 00 00 00 00 00 00 00 00 00 00 00 00 00
       0.0 0.0
0000a0 00 00 00 00 00 00 00 00 00 00 00 00 00 00 00 00
       0.0 0.0
0000b0 00 00 00 00 00 00 00 00 00 00 00 00 00 00 00 00
       0.0 0.0
0000c0 00 00 00 00 00 00 00 00 00 00 00 00 00 00 00 00
       0.0 0.0
0000d0 00 00 00 00 00 00 00 00 00 00 00 00 00 00 00 00
       0.0 0.0
0000e0 00 00 00 00 00 00 00 00 00 00 00 00 00 00 00 00
       0.0 0.0
0000f0 00 00 00 00 00 00 00 00 00 00 00 00 00 00 00 00
       0.0 0.0

h_t2 f8 [1, 32]
000000 00 00 00 00 00 00 00 00 00 00 00 00 00 00 00 00
       0.0 0.0
000010 00 00 00 00 00 00 00 00 00 00 00 00 00 00 00 00
       0.0 0.0
000020 00 00 00 00 00 00 00 00 00 00 00 00 00 00 00 00
       0.0 0.0
000030 00 00 00 00 00 00 00 00 00 00 00 00 00 00 00 00
       0.0 0.0
000040 00 00 00 00 00 00 00 00 00 00 00 00 00 00 00 00
       0.0 0.0
000050 00 00 00 00 00 00 00 00 00 00 00 00 00 00 00 00
       0.0 0.0
000060 00 00 00 00 00 00 00 00 00 00 00 00 00 00 00 00
       0.0 0.0
000070 00 00 00 00 00 00 00 00 00 00 00 00 00 00 00 00
       0.0 0.0
000080 00 00 00 00 00 00 00 00 00 00 00 00 00 00 00 00
       0.0 0.0
000090 00 00 00 00 00 00 00 00 00 00 00 00 00 00 00 00
       0.0 0.0
0000a0 00 00 00 00 00 00 00 00 00 00 00 00 00 00 00 00
       0.0 0.0
0000b0 00 00 00 00 00 00 00 00 00 00 00 00 00 00 00 00
       0.0 0.0
0000c0 00 00 00 00 00 00 00 00 00 00 00 00 00 00 00 00
       0.0 0.0
0000d0 00 00 00 00 00 00 00 00 00 00 00 00 00 00 00 00
       0.0 0.0
0000e0 00 00 00 00 00 00 00 00 00 00 00 00 00 00 00 00
       0.0 0.0
0000f0 00 00 00 00 00 00 00 00 00 00 00 00 00 00 00 00
       0.0 0.0

c_t2 f8 [1, 32]
000000 00 00 00 00 00 00 00 00 00 00 00 00 00 00 00 00
       0.0 0.0
000010 00 00 00 00 00 00 00 00 00 00 00 00 00 00 00 00
       0.0 0.0
000020 00 00 00 00 00 00 00 00 00 00 00 00 00 00 00 00
       0.0 0.0
000030 00 00 00 00 00 00 00 00 00 00 00 00 00 00 00 00
       0.0 0.0
000040 00 00 00 00 00 00 00 00 00 00 00 00 00 00 00 00
       0.0 0.0
000050 00 00 00 00 00 00 00 00 00 00 00 00 00 00 00 00
       0.0 0.0
000060 00 00 00 00 00 00 00 00 00 00 00 00 00 00 00 00
       0.0 0.0
000070 00 00 00 00 00 00 00 00 00 00 00 00 00 00 00 00
       0.0 0.0
000080 00 00 00 00 00 00 00 00 00 00 00 00 00 00 00 00
       0.0 0.0
000090 00 00 00 00 00 00 00 00 00 00 00 00 00 00 00 00
       0.0 0.0
0000a0 00 00 00 00 00 00 00 00 00 00 00 00 00 00 00 00
       0.0 0.0
0000b0 00 00 00 00 00 00 00 00 00 00 00 00 00 00 00 00
       0.0 0.0
0000c0 00 00 00 00 00 00 00 00 00 00 00 00 00 00 00 00
       0.0 0.0
0000d0 00 00 00 00 00 00 00 00 00 00 00 00 00 00 00 00
       0.0 0.0
0000e0 00 00 00 00 00 00 00 00 00 00 00 00 00 00 00 00
       0.0 0.0
0000f0 00 00 00 00 00 00 00 00 00 00 00 00 00 00 00 00
       0.0 0.0

weight_ih f8 [128, 1]
000000 00 00 00 40 16 8f c1 bf 00 00 00 80 07 94 c2 bf
       -0.1371791660785675 -0.14514249563217163
000010 00 00 00 a0 74 14 c3 bf 00 00 00 40 22 e0 9f bf
       -0.14906175434589386 -0.03112844005227089
000020 00 00 00 a0 12 21 90 3f 00 00 00 e0 75 08 bf bf
       0.01575116254389286 -0.1212228462100029
000030 00 00 00 20 59 e8 bf 3f 00 00 00 a0 be 85 c1 3f
       0.1246391013264656 0.13689406216144562
000040 00 00 00 20 ef 18 b0 3f 00 00 00 40 6b 65 b6 bf
       0.06288046389818192 -0.08748503029346466
000050 00 00 00 20 a7 a1 8b bf 00 00 00 60 4f 0e 8d 3f
       -0.013491922058165073 0.014187450520694256
000060 00 00 00 e0 22 99 b1 3f 00 00 00 00 d4 6f af 3f
       0.06874292343854904 0.06140005588531494
000070 00 00 00 60 79 a4 af 3f 00 00 00 e0 88 23 a3 3f
       0.061801712960004807 0.037380483001470566
000080 00 00 00 40 06 78 b4 bf 00 00 00 a0 d4 30 c0 3f
       -0.07995642721652985 0.12649019062519073
000090 00 00 00 80 eb 96 b8 bf 00 00 00 00 e1 ff c2 bf
       -0.0960528552532196 -0.14843380451202393
0000a0 00 00 00 60 0a b3 91 3f 00 00 00 e0 c8 84 b1 bf
       0.01728454791009426 -0.06843238323926926
0000b0 00 00 00 80 61 c0 b7 3f 00 00 00 80 2a c0 b9 bf
       0.0927792489528656 -0.10058847069740295
0000c0 00 00 00 40 87 cc a6 3f 00 00 00 e0 06 af c1 bf
       0.044529177248477936 -0.13815389573574066
0000d0 00 00 00 e0 3e e9 b9 3f 00 00 00 a0 66 24 a9 bf
       0.10121529549360275 -0.04910584166646004
0000e0 00 00 00 40 a8 ad 9b 3f 00 00 00 40 73 a0 bc 3f
       0.02702963724732399 0.11182327568531036
0000f0 00 00 00 80 f9 ec b4 bf 00 00 00 60 9e 6a 85 3f
       -0.08174094557762146 0.010457265190780163
000100 00 00 00 c0 83 08 ab bf 00 00 00 c0 95 81 7c bf
       -0.05279933661222458 -0.006959519349038601
000110 00 00 00 40 65 43 ad bf 00 00 00 60 f7 6a c3 bf
       -0.057154811918735504 -0.15170185267925262
000120 00 00 00 e0 f4 89 b5 3f 00 00 00 60 19 73 c3 3f
       0.08413629978895187 0.15195004642009735
000130 00 00 00 00 ed 87 c6 3f 00 00 00 40 3f 24 c5 bf
       0.17602312564849854 -0.1651686728000641
000140 00 00 00 c0 c1 15 bd 3f 00 00 00 a0 f6 fc 9a bf
       0.11361323297023773 -0.026355603709816933
000150 00 00 00 80 fd 9d ba bf 00 00 00 a0 b7 1e 8d bf
       -0.10397323966026306 -0.014218744821846485
000160 00 00 00 a0 b4 59 8d 3f 00 00 00 00 b7 7f a2 bf
       0.014331256039440632 -0.0361306369304657
000170 00 00 00 a0 e3 0b a8 3f 00 00 00 a0 27 7a b1 3f
       0.04696570709347725 0.06827018409967422
000180 00 00 00 80 0e 4a c6 3f 00 00 00 00 6b d9 bb 3f
       0.1741350293159485 0.10878628492355347
000190 00 00 00 20 0d 80 c2 3f 00 00 00 60 08 be b6 3f
       0.14453281462192535 0.088837169110775
0001a0 00 00 00 40 83 c8 b2 3f 00 00 00 80 e1 8f b9 bf
       0.07337208092212677 -0.09985169768333435
0001b0 00 00 00 a0 c8 7b c4 3f 00 00 00 e0 b3 38 b5 3f
       0.16002757847309113 0.08289646357297897
0001c0 00 00 00 00 ed 4c 95 bf 00 00 00 20 ca 9a c5 3f
       -0.020801261067390442 0.16878630220890045
0001d0 00 00 00 00 1a e4 bb 3f 00 00 00 60 78 9e c2 bf
       0.10894930362701416 -0.14546112716197968
0001e0 00 00 00 40 5a bc 9d bf 00 00 00 80 33 e6 c1 3f
       -0.029038820415735245 0.13983768224716187
0001f0 00 00 00 20 95 f8 c4 bf 00 00 00 e0 53 b1 c4 3f
       -0.16383613646030426 0.16166161000728607
000200 00 00 00 a0 e4 91 b8 bf 00 00 00 a0 86 5b b3 3f
       -0.09597615152597427 0.07561532407999039
000210 00 00 00 80 07 c5 97 bf 00 00 00 80 8d dd c4 bf
       -0.02321254462003708 -0.16301125288009644
000220 00 00 00 c0 38 ee bf bf 00 00 00 80 53 d2 c2 bf
       -0.124728724360466 -0.1470436453819275
000230 00 00 00 80 fd 70 bd bf 00 00 00 c0 93 c3 be 3f
       -0.11500534415245056 0.12017177045345306
000240 00 00 00 e0 32 7b a1 bf 00 00 00 e0 44 18 58 3f
       -0.034143056720495224 0.0014706299407407641
000250 00 00 00 e0 f6 7e ae 3f 00 00 00 20 33 20 b0 3f
       0.05956241115927696 0.06299132853746414
000260 00 00 00 20 28 e7 c4 bf 00 00 00 c0 24 16 c5 bf
       -0.16330434381961823 -0.164738267660141
000270 00 00 00 a0 fb 92 c5 3f 00 00 00 60 b2 3d c5 3f
       0.16854806244373322 0.16594533622264862
000280 00 00 00 80 fd 27 b4 bf 00 00 00 e0 9a c5 b5 bf
       -0.07873520255088806 -0.08504646271467209
000290 00 00 00 c0 11 79 c3 bf 00 00 00 e0 e3 fb be bf
       -0.15213224291801453 -0.12103103846311569
0002a0 00 00 00 c0 88 13 a5 bf 00 00 00 a0 a9 bf a8 bf
       -0.04116465896368027 -0.04833726957440376
0002b0 00 00 00 20 e4 f5 af 3f 00 00 00 20 d8 59 b0 3f
       0.06242287531495094 0.06387091428041458
0002c0 00 00 00 a0 14 97 8f bf 00 00 00 60 e7 d9 91 bf
       -0.015424882061779499 -0.01743279956281185
0002d0 00 00 00 20 bb 24 b9 3f 00 00 00 e0 63 9b b7 3f
       0.0982167199254036 0.09221481531858444
0002e0 00 00 00 80 aa 6a b1 bf 00 00 00 00 6c 6b 9e 3f
       -0.0680338442325592 0.02970665693283081
0002f0 00 00 00 60 da f0 c5 3f 00 00 00 40 46 cc a7 3f
       0.17141275107860565 0.046480365097522736
000300 00 00 00 c0 00 a9 bf bf 00 00 00 00 46 e6 bd bf
       -0.12367253005504608 -0.11679494380950928
000310 00 00 00 40 c9 eb bb 3f 00 00 00 20 84 c3 c0 bf
       0.10906656086444855 -0.1309666782617569
000320 00 00 00 20 c3 29 b4 bf 00 00 00 80 c6 6e a4 3f
       -0.0787622407078743 0.03990764915943146
000330 00 00 00 00 56 15 b9 3f 00 00 00 a0 1b a3 b8 bf
       0.09798181056976318 -0.09623882919549942
000340 00 00 00 40 05 b2 b7 bf 00 00 00 60 26 e5 c0 3f
       -0.09256012737751007 0.1319931000471115
000350 00 00 00 a0 82 6e 8f 3f 00 00 00 00 c9 2b a3 bf
       0.015347500331699848 -0.03744342923164368
000360 00 00 00 40 bd be a5 3f 00 00 00 40 d0 01 a0 3f
       0.04247085005044937 0.03126383572816849
000370 00 00 00 80 d3 55 c5 bf 00 00 00 40 95 41 b6 3f
       -0.166681706905365 0.08693821728229523
000380 00 00 00 e0 29 19 c4 3f 00 00 00 60 fd e3 bb bf
       0.15701793134212494 -0.10894759744405746
000390 00 00 00 40 81 c7 9a bf 00 00 00 c0 7a 2d bd bf
       -0.02615167573094368 -0.11397521197795868
0003a0 00 00 00 80 ca 14 c3 bf 00 00 00 80 88 f7 c0 3f
       -0.14907199144363403 0.13255411386489868
0003b0 00 00 00 a0 d6 f2 bd 3f 00 00 00 00 02 6c 7e bf
       0.11698666960000992 -0.007427223026752472
0003c0 00 00 00 40 f1 88 b4 3f 00 00 00 00 b8 0b c4 bf
       0.08021457493305206 -0.15660762786865234
0003d0 00 00 00 80 39 bd b6 bf 00 00 00 60 e1 45 c6 bf
       -0.08882483839988708 -0.1740075796842575
0003e0 00 00 00 60 bd 47 c2 bf 00 00 00 e0 bd 28 bb 3f
       -0.14281432330608368 0.10609041899442673
0003f0 00 00 00 c0 a2 77 b2 bf 00 00 00 20 eb 76 ba bf
       -0.0721379965543747 -0.10337705165147781

weight_hh f8 [128, 32]
000000 f9 66 d1 42 d6 9a bf 3f 4f 0c 03 24 18 f3 ad 3f
       0.12345637446687964 0.05849528731916875
000010 7c 91 f9 47 40 95 72 3f 22 b6 8d a7 d8 c7 b7 3f
       0.004536868189095929 0.0928931626383123
000020 48 1d 35 93 e1 c8 a5 3f 66 03 af a3 ab cf c1 3f
       0.042548226565993164 0.1391500996815253
000030 ba dd 8d 1a fb 34 b0 bf 3d 91 9c 1c 1b 2e c6 bf
       -0.06330842397971184 -0.17328204056787824
000040 48 08 5c ff b0 5f bc bf 88 28 77 2b af f2 7a bf
       -0.11083513483393503 -0.006579097992878265
000050 8c c0 af af 4a ae c1 3f 1b 0a f4 33 da 84 c3 3f
       0.1381314618915933 0.15249183213025294
000060 71 b8 8f 22 16 89 bb bf e9 59 03 79 09 1c c0 3f
       -0.10756052345070245 0.12585562142221754
000070 c2 60 16 2f 53 79 9a 3f f8 20 0f 25 8c b9 ad bf
       0.025853442906367936 -0.05805623962766221
000080 09 cd 7e 83 55 40 b6 bf 72 56 56 bb 29 35 ad bf
       -0.08691915951094499 -0.05704622661430116
000090 75 37 e5 ee 00 dc a6 3f ad 8f c7 80 d0 52 c6 bf
       0.04464724460795725 -0.1744022969061211
0000a0 62 74 d8 fd 17 79 a7 3f fd b9 13 da c7 f7 b1 3f
       0.045845746743204754 0.07018708299776928
0000b0 61 0e c3 4b b1 53 a8 3f 16 1d 56 9b 43 72 b7 bf
       0.047513523577006785 -0.0915872816313946
0000c0 25 4b f5 50 28 e1 c3 bf 83 6c ce b7 9d 2d 99 3f
       -0.15530876114879635 0.02458807405819786
0000d0 3c 26 3f f3 52 fb c3 3f 5b f3 57 41 34 12 b9 3f
       0.15610730054167898 0.09793402285863577
0000e0 83 40 05 2f e0 27 b1 bf 23 75 4c 67 4c 3c bc 3f
       -0.0670147051616841 0.11029508134784698
0000f0 9a d3 e1 dd bb 26 c5 3f c2 9a 86 48 9c 5c bd 3f
       0.16524456342781663 0.1146943738045634
000100 0f e1 18 73 45 7e a3 3f 1d e5 5e 37 ed 8e 83 3f
       0.03807274847025798 0.00954995465495983
000110 c7 39 08 63 17 20 c4 bf af a9 c6 97 f9 bb ac 3f
       -0.15722935042908956 0.056121635224673276
000120 bc c5 4b 07 7d e7 c5 3f a4 21 e9 79 e8 3c 95 bf
       0.17112696510552705 -0.02074015850146939
000130 ca 04 de 0a 7d ee b5 bf 95 42 12 c3 2b ba a7 bf
       -0.0856702949077032 -0.04634224659196665
000140 86 42 32 bd 02 6b ba bf 50 bc 09 59 e6 2e bb bf
       -0.10319535368967978 -0.1061843840959551
000150 c7 92 41 ce 4d f2 a0 3f 85 25 7e bc bd ff c3 3f
       0.033098632266761956 0.15624210075138137
000160 33 ea d4 b7 34 4c c6 bf 76 0d 77 cc 66 72 9f 3f
       -0.17420062042386206 0.030709844808155272
000170 bf 12 03 0b 25 80 b2 bf 0a de a8 96 da 17 80 3f
       -0.07226783293578885 0.00785799762989738
000180 ec 42 d0 f6 55 91 a3 bf 62 3c 15 fe 54 34 c0 3f
       -0.0382181991373097 0.12659704595941706
000190 13 7c 15 db eb f0 bf bf c7 d7 dd d7 8d e3 a2 bf
       -0.12476991747597337 -0.03689234981622707
0001a0 2c 3e ac fe 82 b2 bd 3f dc 07 16 ef 30 d8 c3 3f
       0.11600512235258326 0.15503513025401972
0001b0 1e f0 c2 55 df f6 a2 3f ba eb d7 11 f5 1c 84 3f
       0.03703973695652983 0.009820856673277468
0001c0 c1 27 d7 4f b4 d4 ba 3f 7d 28 94 4e ae 40 c5 bf
       0.10480811070661301 -0.16603640400746036
0001d0 48 5f a5 70 8a 4e bb bf 93 d9 54 1c 18 41 96 3f
       -0.10666718721529123 0.021732689599241416
0001e0 ef 7f 98 46 8b d0 c1 3f 99 2d 8f 9a bb 2a c0 3f
       0.13917675921493308 0.12630410239067372
0001f0 e4 85 43 41 ac 76 b0 bf 06 8a 61 e9 e2 ad b2 bf
       -0.06431080430368002 -0.07296579549578305
000200 09 b0 3a b1 95 54 90 bf 6d 2f 25 cf df ca bc 3f
       -0.01594766515943039 0.11247061545617294
000210 1e 8f e3 eb 27 9f 96 3f 88 c9 18 6d b5 2a c6 3f
       0.022091506741062188 0.17317836596482672
000220 52 c4 38 97 20 d1 a3 3f 5f 0d 92 e6 d4 d8 c0 bf
       0.03870488973587584 -0.1316171766121483
000230 92 f7 d0 cc dc dc 71 bf 66 18 62 fd 40 e3 88 3f
       -0.004361021518944146 0.012152202351227891
000240 04 c4 5a 2a 6d 4e c2 bf ec 2b ae 01 31 22 b4 3f
       -0.14301838462918692 0.07864671984695776
000250 b4 23 f9 70 d9 df 5e 3f c7 1b dd 96 50 56 bf bf
       0.0018844245386324511 -0.1224108093566506
000260 81 2e fe d2 36 d4 b7 3f 99 13 ca fb 68 c1 c3 3f
       0.09308188105767991 0.1543399075927965
000270 cf 50 49 bf 90 35 b6 bf 28 bd 4e d8 e5 c8 98 bf
       -0.0867548434264933 -0.0242038644097963
000280 59 81 8e f8 ef 2f c3 bf d0 10 dc cc 46 85 c2 3f
       -0.14990043293529245 0.1446922779360933
000290 10 18 08 44 a6 f7 a2 bf 22 35 6a cf b8 da c0 3f
       -0.037045665554657714 0.13167486312560422
0002a0 d6 2d c9 5d fc e5 b4 3f 9b bc 8f 9a 63 a9 c4 bf
       0.08163430490201704 -0.16141934439608438
0002b0 8b 33 6b aa 0b 18 a8 bf bc fa bb db ca 19 b2 3f
       -0.0470584531336505 0.07070606102568439
0002c0 45 67 aa 77 23 7e b3 bf a7 3f 4d b3 e9 e6 c2 bf
       -0.07614347144626972 -0.14767190222710022
0002d0 e6 9d c8 8c 81 d4 c4 3f 13 0e 50 0d 1c a1 b7 3f
       0.1627351701183521 0.09230208706872416
0002e0 24 23 72 c4 56 18 c5 3f d4 40 f4 13 3d 7f a8 bf
       0.16480526535112816 -0.047845753370099026
0002f0 9b 96 c0 6c 89 fa c4 3f 88 27 70 01 6e a0 92 bf
       0.16389577684565357 -0.018190115773939947
000300 e1 e3 a7 e9 0d 02 c6 bf ee 20 e5 8c b4 c6 c1 bf
       -0.1719376936814845 -0.13887650375023192
000310 9e 28 da 00 c5 16 c3 3f ec bd 71 70 bc f5 b4 3f
       0.1491323713456198 0.08187463517401
000320 62 53 a4 71 49 3e c1 3f ea d4 fb 7d 90 92 c4 3f
       0.1347133450405194 0.1607227912096854
000330 76 91 09 0a 50 8a c4 3f df c2 53 16 23 81 b8 3f
       0.1604709671984314 0.09572047515008418
000340 25 ef a6 8f c0 3d 82 bf 84 ac 62 35 7d dd ac 3f
       -0.008906845458902144 0.05637732769658846
000350 8a d1 a9 a9 3d ce bb bf 0c 4d b7 fb 7d c5 c0 3f
       -0.10861573593303411 0.13102698126622447
000360 79 17 e9 90 c8 f2 86 bf 55 74 72 91 5e 66 b9 3f
       -0.011205260202711053 0.0992182831855229
000370 8f 27 27 89 bc de c6 bf 11 66 40 b7 bd bc 97 3f
       -0.17867237755700358 0.023180927572047653
000380 0a ab 1c da 8d 2b a1 bf e6 91 26 78 57 b9 a1 3f
       -0.033535416483877326 0.034617169777707166
000390 04 75 00 a2 92 3d aa 3f dd 91 04 af 2d ba c5 3f
       0.05125101306496485 0.16974421544831744
0003a0 89 b0 09 70 9c 6a c4 bf 74 f7 6a 95 3d e7 b0 bf
       -0.15950351210210936 -0.06602845094582027
0003b0 86 64 29 8c d3 fd b2 bf 0b 09 3f 68 4a 9a b1 bf
       -0.07418558284679663 -0.06876053853105561
0003c0 74 5d 40 e5 81 1a c1 3f 8d 7a 30 d4 b4 98 a4 3f
       0.1336214417831162 0.04022755708887358
0003d0 ce ee 48 1e eb 72 c3 3f 56 2d 8d 54 67 79 be 3f
       0.1519445321917971 0.11903997244114825
0003e0 42 cc 19 52 06 d0 c5 bf 51 a0 2d 13 2c eb 9e bf
       -0.17041090973688894 -0.030193985624834167
0003f0 87 b4 fd 39 38 d1 c2 3f ae c6 c8 35 da 3c b9 3f
       0.14700987655252026 0.09858478367893994
000400 dd 75 4f e0 e6 c8 9e 3f f5 85 ec 0e 31 ff c6 bf
       0.030063254776782834 -0.17966283062655433
000410 b6 f1 be 0a ef 61 b8 bf 8f cd e6 74 1e 1b c0 3f
       -0.09524435055113298 0.125827605324599
000420 7f eb ab db 83 5e a5 3f 92 f3 7a 28 07 fc ab 3f
       0.04173671776330589 0.05465719575065643
000430 6a ad 3d 1a 08 33 b6 3f 2a b2 cd b1 41 c8 aa 3f
       0.0867161811890377 0.05230908675625685
000440 b0 dc d6 e8 8a a3 c5 3f 13 de 40 96 d3 9f a5 bf
       0.16905342454058347 -0.04223500451228914
000450 72 10 ad 81 23 ea be bf b4 ee 85 d6 c0 07 c1 bf
       -0.12076017299574618 -0.1330491111256059
000460 71 c1 bf 27 2a 95 ad bf 3c 04 ee 78 6a a2 c6 3f
       -0.05777866111009445 0.17683154015324642
000470 51 9a a0 92 87 91 ac 3f b3 19 16 76 c6 c0 b5 bf
       0.05579780259022427 -0.08497276671378166
000480 12 a1 1a 0c 17 fe a2 bf 43 77 c0 75 11 46 a8 bf
       -0.03709480307344583 -0.04740957796478409
000490 a0 9e 33 6b c0 f8 b7 3f ff e5 c3 50 b4 18 9a bf
       0.09363939873912352 -0.02548486464454491
0004a0 9a de dc d2 4c a5 c2 bf 4d f2 64 39 a0 c8 c1 3f
       -0.14566955848726054 0.1389351158376421
0004b0 af ca 41 bd 97 9f b6 bf ec 95 53 7e f1 29 a5 3f
       -0.08837269182712747 0.04133562724181758
0004c0 87 e6 55 2d 58 cc b3 3f eb bf b3 df 00 b6 b1 bf
       0.07733679873299525 -0.06918340169408992
0004d0 ad cd ce 15 b6 42 c5 bf ce 79 8c 23 8e 30 aa 3f
       -0.1660983664020085 0.051151697005696314
0004e0 fd 9a 7f 93 cc e8 c1 3f 3b 68 cc dc 51 0a c5 bf
       0.1399169655043905 -0.16437743455100126
0004f0 bb 1d 0e 2b 12 a3 bc bf bb a2 87 4b 74 77 a2 bf
       -0.11186326552534968 -0.03606761381144482
000500 37 6c d5 57 9f a5 c0 bf 8c 58 da 4a ec 50 b0 3f
       -0.13005439556840923 0.06373478724921905
000510 05 53 b5 ae a9 4d c1 bf a5 f8 25 6c dd 40 b8 3f
       -0.13518258124045004 0.09473976030673954
000520 51 bc 73 87 95 a7 b3 bf 71 b2 41 ca b7 86 a4 3f
       -0.07677588040290685 0.04009031623795501
000530 69 6f 4b 55 bc 85 9c 3f 5a 0a 12 f1 77 c1 a6 bf
       0.027853911119435724 -0.044444797685191786
000540 bb 39 f8 cd b9 29 80 bf 71 b4 b7 a3 78 cc b1 3f
       -0.00789208564586096 0.06952623364459655
000550 5b 9b b1 96 3a 49 ba 3f f1 d3 ad 60 2f 1f a6 3f
       0.10267988375708852 0.04320667319453964
000560 b9 ab 01 5d 6f e3 82 bf 61 51 06 a7 f1 05 c3 3f
       -0.009222860360940876 0.1486188951063339
000570 e2 ab 52 96 e6 ba 92 3f fe 99 7b 0b 41 dc be bf
       0.018291094708427276 -0.12054831056921242
000580 c4 70 9a 72 f1 1f ad bf 76 29 5f a1 26 88 8e bf
       -0.05688433193174228 -0.014908124732660549
000590 be c5 50 36 0b de 95 3f 60 9b 3f db 07 e7 b6 3f
       0.021354842367321096 0.08946274855371206
0005a0 f4 e4 24 50 29 45 c5 3f c8 e3 6a 02 99 39 c2 bf
       0.16617313779151 -0.1423827421001802
0005b0 73 a1 0a ec 0e cb c3 3f ac c6 fe 7f fc 74 b3 3f
       0.15463434720482958 0.07600381970294262
0005c0 8c 3a b9 6d c3 86 c0 3f eb 61 d3 99 84 86 ba 3f
       0.12911265237422176 0.10361508136282509
0005d0 98 d8 b1 8b 66 5a aa 3f d7 73 96 2f ca e7 bf bf
       0.05147095160730081 -0.12463058149155813
0005e0 4e 69 84 cb 8a 90 c5 3f 69 4a 84 80 57 d5 95 3f
       0.16847357690205417 0.021321646899262
0005f0 a9 14 35 a6 5f 57 aa bf 88 fe b3 aa 2e 93 bb 3f
       -0.051447857893927314 0.10771457355076042
000600 37 fa ab 55 9d f4 c2 3f 53 15 13 5a 49 5f c6 3f
       0.14809004481499397 0.17478291414424038
000610 91 0f a6 db 7f d2 a8 bf ac 72 1f c4 b3 86 a6 bf
       -0.04848098331697693 -0.04399644631459884
000620 b6 c2 bd aa fe 66 ba bf 24 1c d7 00 ee 15 c6 bf
       -0.10313407581794362 -0.17254424134282076
000630 4c 1d 4c b3 ca e0 a2 bf c6 c6 de 26 bb 9e b3 bf
       -0.03687127531707776 -0.07664079379062647
000640 66 96 9b 8e 91 1e c0 3f fe ca ad 41 b8 fe a5 3f
       0.12593287909764966 0.04295898248428463
000650 9f 6f 30 33 70 43 a5 bf 27 ea 8a 9d 3f 11 c5 bf
       -0.04153013825290874 -0.1645888823748731
000660 f8 a3 2c 21 74 73 af 3f f0 39 50 25 25 ae c0 bf
       0.06142771630249649 -0.13031448671286183
000670 03 37 35 c3 55 11 ba 3f eb 4f e3 54 db 7a 93 bf
       0.10182701125924258 -0.019023348861836025
000680 70 a7 19 ba b7 60 45 bf b6 0c 18 90 b5 70 9a bf
       -0.0006523987869517644 -0.025820576591297516
000690 14 f6 1b dd 60 39 b2 3f 22 03 33 8d ab 1c c6 3f
       0.07118802450346379 0.1727499427270454
0006a0 b3 14 a1 70 05 10 c1 bf 50 69 4d ba 8e bd ad bf
       -0.1333014297435163 -0.05808683418463778
0006b0 24 8a 8e e4 b1 b4 a7 bf 45 13 bc 1f 43 9c ab bf
       -0.04630046763420051 -0.053926560996876684
0006c0 c8 d0 e3 3e e0 ac 74 3f 47 94 12 34 21 53 c3 3f
       0.0050476798626172895 0.1509744171391125
0006d0 7d 3f 79 39 9b 1f b2 3f ec f1 19 2f b4 bc a0 bf
       0.07079477456249879 -0.032689696073223334
0006e0 a2 3d ca 48 78 83 59 3f 1c 76 66 23 98 e6 c4 bf
       0.0015572237636297466 -0.1632871792652829
0006f0 94 c8 bc 99 0a 01 c2 3f 8e 4f ee 9c d9 d6 c0 3f
       0.14065678126059267 0.1315567032112281
000700 ad 8a 27 2e f8 58 aa bf e0 8d 04 c3 2a 0b c0 bf
       -0.05146003306778844 -0.1253407909617712
000710 f5 4c ba 44 e6 6f c2 3f b2 98 3a 16 b2 38 c5 3f
       0.14403990131231806 0.1657927139796747
000720 66 b0 06 89 21 75 c1 bf 1b dd 8a 25 26 76 bd 3f
       -0.13638705435494386 0.11508406082690607
000730 0c 88 1d 26 e0 4d 83 3f 33 0a a4 ca a1 fa 9d bf
       0.009425879634083166 -0.029276397698604305
000740 a4 75 e7 31 92 b8 c5 bf ea fe b0 eb 81 fd ba bf
       -0.16969516216969993 -0.10543071750816649
000750 2a b6 f1 7e 73 9e 9b 3f 2c d4 d3 36 0c 13 8f bf
       0.026971630690630168 -0.015173049376679591
000760 bc 35 73 1e a7 78 b0 3f 95 29 44 45 65 99 92 3f
       0.0643410157528796 0.01816328273074815
000770 3d 2f 05 85 8b f4 c3 bf 2a ea c7 9d 51 43 ab 3f
       -0.15590042109612937 0.05324797678982336
000780 fd cc d6 cd a2 78 c2 bf 58 f0 32 38 39 f5 a9 bf
       -0.1443065171311914 -0.050699031934954675
000790 50 2f df b1 84 af a0 bf a1 75 3e 14 3a 02 b0 3f
       -0.03258909865652859 0.06253397936094142
0007a0 e0 97 46 ba d1 99 ae bf 6e e2 4f a3 8d b2 a8 bf
       -0.05976729773401224 -0.048237253366043883
0007b0 68 8f 32 7a 88 9c 4d 3f ae 9e a6 67 61 4e b5 3f
       0.0009036699670059547 0.08322724133051437
0007c0 2d 9b e4 db 8f 2b c1 bf 65 b5 97 27 ab 92 c2 3f
       -0.13414190518343486 0.14510096963150967
0007d0 a3 cb 77 e3 74 0c c6 3f 9f bc 21 76 6e 7c 83 bf
       0.17225514513810677 -0.009514677982421836
0007e0 fc d5 d0 da 47 cf be bf bb 5c 16 a2 ad 69 a9 bf
       -0.12035035221273199 -0.04963438609700562
0007f0 b8 ad 90 7c 33 a8 b2 3f c8 5d 59 e8 a9 5d be bf
       0.07287904540196777 -0.11861669466576708

bias_ih f8 [128]
000000 60 7e 92 fe 24 e5 b3 bf 00 d8 88 15 cb ac 15 bf
       -0.0777152177347431 -8.268346335502108e-05
000010 03 76 ff 5d eb 8d b4 3f 59 a2 57 3e ac d8 af 3f
       0.08029051823492499 0.062199957475802044
000020 90 f8 c0 17 27 e8 a2 bf 49 30 0e f1 f2 07 af 3f
       -0.03692743458712855 0.06060752098628137
000030 02 fc eb f6 c4 be ab 3f dc 9d 5c 97 ed 5d bc bf
       0.05418982996160794 -0.1108082289252858
000040 26 ff d9 97 80 96 c4 bf 8a 39 da 5c c6 1c a8 bf
       -0.16084296621920052 -0.047094534716154504
000050 83 08 9c 77 2d 69 c4 3f a9 18 f4 82 be 0e a6 bf
       0.1594597658186708 -0.04308123920968516
000060 0c 69 05 8c dd ee 7b 3f af 50 79 97 78 0b 85 bf
       0.006819596689036322 -0.010275785563102905
000070 ce 52 9f 5f 6d 4b c0 bf 51 23 a8 3e 12 f4 bf bf
       -0.127301856699566 -0.12481798200327644
000080 71 e5 7e 43 23 f6 a6 3f 79 3a 25 7e fa 50 a7 bf
       0.04484663199350337 -0.045539691828356994
000090 0f 90 92 fb 29 ca be bf e4 30 9d 28 bf 01 ba bf
       -0.12027227775485037 -0.10158915273240471
0000a0 09 8b d2 d8 7b d6 c0 3f 72 dc c3 95 60 93 90 bf
       0.13154552542717848 -0.016187199726996622
0000b0 9d 77 99 9b 3d 45 c2 3f b8 15 8a ec 17 1b c0 3f
       0.1427380571139424 0.12582682657027333
0000c0 4d ef ae f8 35 5e c3 3f 4d 11 a5 dd 5d 00 c5 bf
       0.15131258623829993 -0.1640736896753289
0000d0 7b f9 88 d5 42 31 c3 3f f9 94 07 35 4c 52 c3 3f
       0.14994082857624477 0.15094902600609553
0000e0 3a 54 2a 25 e7 b7 87 3f d5 75 d3 fb 27 b2 af 3f
       0.011581235715576555 0.0619060988335424
0000f0 cb 12 0c f1 f3 e2 b7 3f 5b 59 d5 96 04 24 c5 3f
       0.09330677637997124 0.16516167988693095
000100 17 22 9a d6 0b 21 bd 3f 7d f1 8c a9 00 e4 9c bf
       0.11378549565609607 -0.028213510845703994
000110 bf 90 f6 4a 43 35 72 bf d1 b2 15 61 83 dd ae bf
       -0.004445326674076876 -0.06028376159779259
000120 3e ac c6 98 f8 f5 c5 3f c8 e3 f7 dd 10 4c b2 3f
       0.17156894168633302 0.07147317332409309
000130 6c 3c 3d bd e8 fd b1 bf 73 2f ff f4 6c bd bf 3f
       -0.07028059597108588 0.12398415547721502
000140 d0 f2 73 da af 00 ac 3f de 2f cd 5f 98 01 bb bf
       0.05469274083768527 -0.10549309100059598
000150 25 09 21 75 2c 3d c0 bf 80 3d f0 8b c0 bf a0 3f
       -0.12686687201682748 0.03271295269234553
000160 09 60 f2 82 89 29 bb bf db e3 6c c1 4c 5c c2 bf
       -0.1061025566763193 -0.14344176716420418
000170 90 84 fb 20 94 09 9d 3f 2e 1a 3a 2c 46 95 7b 3f
       0.028356852067080995 0.006734155762052425
000180 be 39 8d a7 36 37 b3 3f 21 bb c9 67 68 15 c0 bf
       0.07506124106041676 -0.12565331523679737
000190 dc be 71 19 ca 96 82 3f 01 79 35 b4 e4 e5 b3 3f
       0.009076670552729586 0.07772664451247026
0001a0 81 28 dc 22 35 a3 c1 bf b9 fd 5a 2e e0 56 ba 3f
       -0.13779319955967043 0.10288811809277022
0001b0 d1 fb ff 25 cd ec c5 bf 8b 3d 01 05 39 72 b9 3f
       -0.1712891040369571 0.09939915058315855
0001c0 5c f8 2b 88 5d ca bd bf 2d 61 10 4b 6a 07 96 bf
       -0.11636910032754727 -0.02151266177324478
0001d0 ae b7 47 cc 74 95 a4 bf 58 89 4b f4 58 71 ba bf
       -0.04020276063589222 -0.10329204525217983
0001e0 cb ed dd 7e 5e ee 70 3f 43 09 f1 36 6a 58 8d 3f
       0.004133576510749258 0.01432879429024026
0001f0 fb 43 46 d6 56 ec c5 3f fe 31 05 44 12 5f c1 3f
       0.17127500021572914 0.1357138473635046
000200 a3 8f 01 15 67 74 99 3f 80 e7 0e 6f 62 2b a7 3f
       0.024858103425131294 0.045252872521316156
000210 bd 2e ad e7 73 9c c5 bf 50 da b4 3e 2e f2 c1 bf
       -0.16883705913857297 -0.14020326673353845
000220 3a f2 d4 f0 8d 52 c0 bf fe 75 1b 5f 47 fa a7 bf
       -0.1275193620621325 -0.046831350669645375
000230 21 25 d1 91 db ba b0 3f 22 cc 99 85 dd 16 b0 bf
       0.06535122213349044 -0.06284889709222388
000240 59 00 b7 d1 f8 e1 b6 bf 0e 42 2f 95 ea 17 c1 bf
       -0.08938555831901009 -0.13354236874012354
000250 0f c3 34 7c e8 41 96 bf 18 b7 07 e7 f3 b1 95 bf
       -0.02173579462140923 -0.021186648345909637
000260 2d 6e 35 0e 24 f8 c3 bf fd 68 91 ef 46 7a b9 bf
       -0.15601015752587113 -0.09952205036953284
000270 f3 eb 90 8b 69 cc 84 3f b9 09 21 47 df 8e c1 3f
       0.010155510493964548 0.13717261288736696
000280 cf cd f2 5a 65 d3 be bf d6 22 91 79 92 58 b0 3f
       -0.12041314573689664 0.06385150402014558
000290 d9 6a 50 05 82 b4 a0 3f 8f 36 8b cf a0 84 b4 3f
       0.0326271659361816 0.0801487452219709
0002a0 00 50 7f 8e ea 24 c6 bf 69 88 be 4e 16 33 c1 3f
       -0.17300159414173777 0.13437155575690277
0002b0 8e 1a 68 f9 0e cc 8c bf b9 d1 ea 98 dd 1b 7a bf
       -0.014061085687911114 -0.006374230970937971
0002c0 32 c5 37 30 13 fe a7 3f a1 be f2 de 83 28 ba 3f
       0.04686031306835971 0.10218071168014344
0002d0 32 f3 76 a8 e9 39 4b bf 22 78 de fc e1 70 c4 bf
       -0.0008308783443947475 -0.15969490859146257
0002e0 71 1e dd c7 b5 04 b2 bf 20 5d 73 37 cd 72 ab 3f
       -0.07038437013135891 0.05361024190795605
0002f0 9f 67 cb 8a 30 b4 c1 3f 37 a3 fd 7a 2d 3e c1 3f
       0.1383114507396472 0.13471001153382087
000300 99 25 0b 33 c3 4a c4 3f 3a a5 9d 6e 2a fa c4 bf
       0.15853157036171409 -0.16388445283090808
000310 96 4f 21 82 a9 64 c3 bf 38 7a 54 53 fa 93 90 bf
       -0.15150946477899357 -0.016189490638789134
000320 23 dc e5 1f 96 28 b0 3f 2f 7a 11 b3 89 0c c3 3f
       0.06311929968602263 0.14882012599532987
000330 a7 22 cf 74 80 a1 9e bf 94 0b 4e 27 e3 39 be bf
       -0.029912955407584232 -0.11807079038230334
000340 4a 72 2a 4b 66 20 c6 3f 76 ea b8 53 72 ef c5 bf
       0.17286375684934036 -0.17136983001713063
000350 d7 18 94 d9 51 2c bc bf 6f 9c 16 26 e7 0f c0 bf
       -0.11005126535391994 -0.12548531875401944
000360 40 6d 71 d3 d9 e4 b9 3f b4 6a c0 18 2a c3 b4 bf
       0.1011482373445931 -0.08110297302520558
000370 49 d6 88 60 b9 7e c5 3f 88 95 e7 82 d4 ef bf 3f
       0.16792981351470562 0.12475326724923808
000380 08 9b 96 af db dc c0 3f f6 c8 9b fa 25 ab b4 bf
       0.13174005578658687 -0.08073651665089074
000390 37 99 19 5e 33 d2 b3 3f e8 c3 81 40 69 5d ac bf
       0.07742615744937074 -0.05540017044484796
0003a0 16 fe 59 ee 8a ed ac 3f ca d9 76 0e 22 0d bc 3f
       0.05649980697216621 0.10957539418345799
0003b0 b7 f0 8e 44 e9 50 a8 3f 9f af 20 87 98 d0 c3 3f
       0.047492303484859937 0.15480333898574103
0003c0 58 b1 28 d7 70 b6 c0 3f 57 32 d1 bb 3c f1 79 bf
       0.13056765085037614 -0.006333577385771414
0003d0 e3 78 81 1c 3f 1f c5 3f a5 98 68 c8 99 1e c4 3f
       0.16501606838114133 0.15718385968756823
0003e0 6d 24 31 6e f9 87 a3 3f b4 57 a6 e1 78 a9 c3 3f
       0.03814677686802601 0.15360938089423615
0003f0 79 36 92 a4 ef 1a b7 3f cc fb 9d 69 88 01 bc 3f
       0.09025476234293163 0.10939838961165477

bias_hh f8 [128]
000000 c0 fc 24 1d d6 91 ab bf e5 4e 1d 00 0b 3c c5 3f
       -0.05384701829688643 0.16589486604299633
000010 fe 44 00 31 74 49 c6 bf 6a 17 6a 10 e4 5d c1 bf
       -0.1741166342986062 -0.13567782212720242
000020 90 f8 c0 f7 36 64 af bf ee 73 bc 23 57 4d c3 bf
       -0.061311452620871454 -0.1507977413647547
000030 fe 01 8a d4 5b 90 b0 bf 42 22 36 fa ee 4a 76 3f
       -0.06470273913328836 0.005442555909561055
000040 da 00 26 28 b9 e4 c1 3f 76 c6 25 c3 c7 ab a9 3f
       0.13979258022664603 0.05013870484516485
000050 fa ee c7 b0 ba 8f b9 bf 52 31 e8 a5 da a7 96 bf
       -0.09984938445989747 -0.022124687553558182
000060 b8 d4 9f 6d 4f c2 c0 bf d4 ab 21 ca f6 68 a7 3f
       -0.1309298787379356 0.04572268693376427
000070 78 b3 d4 e7 1f 76 65 bf af dc 57 61 6a c2 b5 3f
       -0.0026198027759591312 0.08499779583495369
000080 b8 72 bf 11 29 79 b7 3f 9e 4e 89 e7 02 2e c6 bf
       0.09169251139924028 -0.17327915482984663
000090 f8 b7 36 02 de c4 c0 3f 1c cf 62 17 c8 2f b5 3f
       0.13100791080563545 0.08276033945986366
0000a0 09 8b d2 b8 0e 37 c2 3f 8e 7b b8 92 fc b3 c4 bf
       0.14230522179158125 -0.1617427555474617
0000b0 3b ef 32 77 03 ef b9 3f 23 a9 d7 ad be 4a ae bf
       0.10130330715304307 -0.059164007874487966
0000c0 6b 7a 77 55 2c 82 91 3f 9a 22 4a fb 43 46 be bf
       0.017098133770441153 -0.11825966725349205
0000d0 7b f9 88 45 0b 4d c0 3f f9 94 07 75 3a 27 c1 3f
       0.1273511971975941 0.134009654181831
0000e0 e3 d5 6a 0d 5d b3 98 bf a7 eb a6 f7 40 24 99 3f
       -0.024121717399529074 0.024552359691124483
0000f0 9a f6 79 87 7e ed c0 bf b7 b2 aa cd 6b f7 b9 3f
       -0.1322477494722321 0.10143159648095944
000100 0b 11 4d 4b 32 99 c4 3f a0 c3 9c 5d 50 10 b9 3f
       0.16092518498238237 0.09790518079240806
000110 18 d2 5e a3 62 28 a8 bf 4c 93 ba 9f 85 c0 c4 3f
       -0.047183115427660904 0.16212530421503357
000120 3e ac c6 98 07 74 c3 3f 1b 0e 04 61 f9 1e c6 bf
       0.15197844466942628 -0.1728202556333692
000130 36 9e 9e 6e 8d c2 c5 bf 73 2f ff 54 bd a6 b8 3f
       -0.16999977017734275 0.09629424405210134
000140 69 f9 39 fd 82 a5 b1 3f 12 68 19 e0 66 5a c6 3f
       0.06893175775801343 0.17463384573312674
000150 aa 24 21 44 dd 44 7a bf bf 1e f8 05 05 44 b6 3f
       -0.0064133303840857945 0.08697539706929101
000160 f7 9f 0d 9d 81 73 bb 3f b5 c7 d9 02 e4 df b8 bf
       0.10723123630816632 -0.09716630048367743
000170 03 49 b8 8f 09 d8 5b 3f 5d 5e 3c f1 82 49 be bf
       0.0016994565365889287 -0.11830919637247335
000180 be 39 8d 47 69 fc b5 3f 36 c8 6e be e9 7f 6c bf
       0.08588273999087101 -0.0034789624509921303
000190 ed 1b 97 db 31 e1 c5 3f 05 e4 d5 70 a4 b2 94 3f
       0.17093489858800073 0.020212716471608178
0001a0 fe 5d 8f 34 21 68 a4 3f 71 fb b5 9c 05 3d ac 3f
       0.039856946626681364 0.055153060321564314
0001b0 d1 fb ff a5 74 6d c4 bf 5b 27 ec 1f 99 de 72 bf
       -0.15959032159295686 -0.00460681738219101
0001c0 46 0f a8 8f 78 5d aa 3f db f3 9d f2 ef 61 c4 3f
       0.05149437669390848 0.1592388090756732
0001d0 93 42 c2 dd dd 4b 7c 3f 9f da d1 0e 30 50 91 3f
       0.0069082895899021 0.01690745439960983
0001e0 47 42 24 1c 42 b0 a9 bf 5f 7b 87 84 20 0f 9d bf
       -0.050172868666895236 -0.02837801751035884
0001f0 da 1f 32 52 21 de 97 3f fc 63 0a 28 54 dc bb 3f
       0.023308296815713316 0.10883069970658704
000200 0b ce 5f 7d 2c 3e c0 bf e0 b9 c3 d3 20 af c2 3f
       -0.12689739343441916 0.1459694894796959
000210 f8 ba b4 9e 1f 87 af bf bf 96 2c a5 bf 6f a2 3f
       -0.061577785609520264 0.036008824265349564
000220 74 e4 a9 a1 65 bf b3 bf f4 af db d8 77 43 71 bf
       -0.07713923642030968 -0.004214733269446203
000230 bf b5 5d fc df 4f af bf 11 e6 cc 5a 42 be c6 bf
       -0.061156272465136656 -0.17768124993908477
000240 4f ff 91 1c 77 25 aa 3f 38 08 bd b4 d6 3a af bf
       0.05106708740004128 -0.060995778620523244
000250 9e 67 79 78 e8 e1 c2 3f 39 12 3e be ad 2c bd 3f
       0.14751916773348922 0.11396299261657185
000260 d3 91 ca f1 c6 89 c0 3f 3a 70 e9 46 48 ae 74 3f
       0.1292046242352983 0.005049021083859679
000270 83 e2 8d fe 37 c2 bf bf 8e ec bd 11 54 eb b5 bf
       -0.12405729260161462 -0.08562207635070448
000280 e7 66 79 ad 99 af c0 bf d6 22 91 69 1f 66 b3 3f
       -0.13035889597340786 0.07577701880758111
000290 8a ad 06 95 bd 06 63 3f 8f 36 8b 4f 42 0a bf 3f
       0.002322550084689905 0.12125029031741462
0002a0 00 50 7f 4e 6c 6e c1 bf a3 21 fa fa 55 16 af 3f
       -0.13618234475018198 0.0607172840946675
0002b0 72 e5 97 e6 50 5c 87 3f 1c ad 8e 6b cf ce b6 bf
       0.011406547581816116 -0.08909317375098563
0002c0 ce 3a c8 ef 97 7f a9 bf af a0 86 10 d9 47 c2 bf
       -0.04980158617046514 -0.14281762415817442
0002d0 33 6f 87 72 eb 12 8a bf 44 f0 bc b9 db 92 b8 bf
       -0.01273139899506468 -0.09599087986583849
0002e0 8f e1 22 98 6f 27 b6 3f b8 28 23 d2 77 6a c2 bf
       0.08653924431098957 -0.14387414703953083
0002f0 c8 3d cf 96 2c c1 30 3f 91 b9 04 8a c8 52 b9 bf
       0.00025565470315044555 -0.09891942376700615
000300 99 25 0b 73 d3 f9 c0 3f 8d b5 c4 22 bf 96 b1 3f
       0.13262408368454429 0.06870646094167494
000310 2c 9f 42 04 87 4e ba bf 7d a3 47 15 72 bf 57 bf
       -0.1027607331658344 -0.0014494527905475057
000320 73 8f 68 40 64 1c 95 bf 5f f4 22 06 cc c6 b4 3f
       -0.020616117888621454 0.08115840101068404
000330 ad 6e 98 b5 86 e2 a2 3f 6c f4 b1 98 73 08 bd 3f
       0.0368845078157539 0.11341021039875593
000340 d7 36 56 93 d7 52 af bf b7 53 c7 dd a2 c6 9a bf
       -0.06117891000313385 -0.02614836195592193
000350 d7 18 94 39 aa ca bc bf bd 71 5a f8 44 b3 a1 bf
       -0.11246742158627697 -0.03457084209114523
000360 81 da e2 a6 ca 5e a8 3f b4 6a c0 58 f5 47 b0 bf
       0.04759820258316428 -0.06359799782550618
000370 49 d6 88 40 67 48 c0 3f 3c 35 8c be 1c 31 c4 bf
       0.12720957423305126 -0.15774878791891378
000380 11 36 2d df 27 a0 b4 3f 7b e4 4d 4d 40 3b c4 bf
       0.08056878279349912 -0.158058202501511
000390 9c cc 0c 2f a8 7a c4 3f 30 78 fc 7e 4c 05 91 3f
       0.15999319360125674 0.016621775866149047
0003a0 d4 03 4c 73 6c 0c 91 bf e4 6c 3b 77 70 95 c3 3f
       -0.01664895490376124 0.15299802610284197
0003b0 5b 78 47 02 a9 dc b1 3f f4 7c 05 59 b1 0f 97 3f
       0.06977325730938004 0.022520800646245356
0003c0 a8 4e d7 08 18 e1 c1 bf 95 4c f4 5e 4b 5a 93 bf
       -0.13968182021800613 -0.01889913336806311
0003d0 3a 0e fd e6 b5 c2 be bf d3 3a bb 1c 94 1e 9b bf
       -0.12015854730003009 -0.02648383546221107
0003e0 36 92 18 87 de 06 b3 3f 67 af 4c 63 d5 59 bb 3f
       0.07432356641999935 0.10683950113587813
0003f0 c4 e4 b6 5d b2 9e c2 bf cc fb 9d 29 58 3c b2 3f
       -0.1454680402364713 0.07123328224223185
