weights/LSTMED/run.pth (torch, 6665 bytes, 9 tensors)

weight_ih_l0 f4 [20, 1]
0	0x3ebd565d	0.36979952
1	0xbe2a7e94	-0.16649848
2	0x3eb7416d	0.35792103
3	0xbd5528f2	-0.052041
4	0x3ee18e8e	0.44054073
5	0x3dad1336	0.0845093
6	0x3eac6a28	0.3367474
7	0x3e1af1eb	0.15131347
8	0xbe10f3d7	-0.14155518
9	0xbee3572b	-0.4440244
10	0xbebac786	-0.3648035
11	0x3e79a79e	0.24380347
12	0x3ed253ca	0.4107955
13	0xbee051da	-0.43812448
14	0x3ea01e39	0.31273058
15	0x3e73b9f4	0.23801404
16	0x3ed86f06	0.42272204
17	0x3eb83741	0.35979655
18	0xbda569c3	-0.08076813
19	0xbe91b69a	-0.28459626

weight_hh_l0 f4 [20, 5]
0	0x3eadc95d	0.3394269
1	0xbd989917	-0.074510746
2	0xbd35316a	-0.044236578
3	0x3ea5df15	0.3239676
4	0x3ebab507	0.36466238
5	0xbe9028d5	-0.28156152
6	0xbea0368c	-0.31291616
7	0x3f035128	0.5129571
8	0x3e07047e	0.13185307
9	0x3e4c34fd	0.19942088
10	0x3ed4f8ad	0.41595975
11	0x3cbeb0b7	0.023277624
12	0xbf0335bc	-0.5125387
13	0x3e495274	0.1966036
14	0x3cea4447	0.02859701
15	0x3e588928	0.21146071
16	0xbecc5d7f	-0.39915082
17	0xbe369c75	-0.17833121
18	0x3ec4489a	0.3833664
19	0xbe82ce6b	-0.2554811
20	0xbee74f84	-0.45177853
21	0xba48fcd4	-0.0007667069
22	0x3ee56ed0	0.44811106
23	0x3e3081b8	0.17236984
24	0xbe42f66d	-0.19039316
25	0x3ebaf3ec	0.36514223
26	0xbdc54c06	-0.09633641
27	0xbe905985	-0.28193298
28	0xbe7eb6df	-0.24874447
29	0x3e4b976b	0.1988198
30	0xbebb18df	-0.36542413
31	0xbef5016d	-0.4785265
32	0xbe89f05d	-0.26941195
33	0x3ed89a22	0.42305094
34	0xbe5e6145	-0.21716793
35	0xbc699c92	-0.014258521
36	0xbdb0c155	-0.08630625
37	0x3e7cb049	0.24676622
38	0xbb43549a	-0.0029805065
39	0x3e212bcd	0.15739365
40	0xbed02ba7	-0.40658304
41	0xbe38cf2e	-0.18047783
42	0xbdd6e5de	-0.104930624
43	0x3f023de4	0.5087569
44	0x3d8a7a37	0.06761592
45	0xbc402b89	-0.01172913
46	0x3eeb5d3d	0.45969573
47	0xbe6a26d2	-0.22866371
48	0x3dc9b8ff	0.09849738
49	0x3e27958c	0.16365641
50	0xbec8b913	-0.392037
51	0x3e7b2f6d	0.2452981
52	0xbebb7155	-0.36609903
53	0xbeee44a2	-0.46536738
54	0x3e4f39ea	0.20236936
55	0x3eb2ba21	0.3490763
56	0x3dbc6c04	0.0920029
57	0x3e67bcf9	0.22630681
58	0xbef24969	-0.47321633
59	0x3ec7cbd6	0.39022702
60	0xbe5464f4	-0.20741636
61	0xbe36af7a	-0.17840376
62	0x3dd3724f	0.10324537
63	0xbee23d5c	-0.44187438
64	0xbe51be20	-0.20482683
65	0xbc9fbff1	-0.019500704
66	0xbce0a6a7	-0.027423216
67	0x3e171ad7	0.14756332
68	0x3eb07cd2	0.3447023
69	0xbee43606	-0.44572467
70	0x3eca7b68	0.39547276
71	0xbe8c77a7	-0.27435037
72	0xbe954e72	-0.29161412
73	0xbec46874	-0.3836094
74	0x3ce2e27f	0.027695892
75	0xbc2a6362	-0.010399671
76	0x3e94a46d	0.29031697
77	0x3e937f90	0.2880826
78	0xbe71c0f5	-0.23608764
79	0x3e8f72bb	0.2801722
80	0xbf0273b1	-0.5095778
81	0xbed9384e	-0.4242577
82	0xbe1f2d6e	-0.15544674
83	0xbe9d9449	-0.30777195
84	0x3e349b4a	0.17637363
85	0x3e53be21	0.20677997
86	0xbde70a7c	-0.112812966
87	0x3ea6de82	0.32591635
88	0xbe47da32	-0.19516829
89	0x3e8771ce	0.26454014
90	0xbf062648	-0.5240216
91	0xbe34ca32	-0.17655256
92	0xbe88930e	-0.26674694
93	0xbddc6a9a	-0.1076252
94	0x3e6ef678	0.23336208
95	0xbd83e02c	-0.06439242
96	0xbd69d1ed	-0.057084966
97	0xbdf90460	-0.121590376
98	0x3db17c73	0.08666315
99	0xbe2c831f	-0.16846894

bias_ih_l0 f4 [20]
0	0xbe134a9f	-0.14383934
1	0xbd92a6a8	-0.071606934
2	0x3db3916e	0.08767973
3	0xbe93fbc7	-0.28903028
4	0x3e197c7d	0.14988895
5	0x3d86e14e	0.06585942
6	0x3eebca1b	0.46052632
7	0xbedf4599	-0.43607786
8	0xbbdd42e0	-0.006752357
9	0x3eb96a18	0.36213756
10	0xbd6c988b	-0.057762664
11	0xbefbfa79	-0.49214533
12	0x3e03d811	0.12875392
13	0xbe36f84e	-0.17868158
14	0xbea2229d	-0.31667033
15	0x3ee84a2c	0.4536909
16	0x3edcdd88	0.43137765
17	0xbeff1026	-0.49817008
18	0x3e585652	0.21126679
19	0x3ed5117e	0.41614908

bias_hh_l0 f4 [20]
0	0xbb9ca09e	-0.0047798892
1	0x3df42aac	0.119222015
2	0xbec4fdc8	-0.3847487
3	0x3e0fd55c	0.14046234
4	0x3f0b33ac	0.5437572
5	0x3edd24d0	0.43192148
6	0x3e975be6	0.295623
7	0xbea312ca	-0.31850272
8	0xbe7ae88b	-0.2450277
9	0xbead32df	-0.33827874
10	0xbef0e99a	-0.47053224
11	0xbe12e187	-0.14343844
12	0x3e649fb3	0.22326545
13	0x3f05bc59	0.5224052
14	0x3e0449ea	0.12918821
15	0x3e1d48b3	0.15359764
16	0x3dfdf8f9	0.124010034
17	0x3c838643	0.016055232
18	0x3d88dbfd	0.066825844
19	0x3e2d1178	0.16901195

weight_ih_l0 f4 [20, 1]
0	0x3e9db17d	0.30799475
1	0x3ea1f708	0.31633782
2	0x3e999255	0.29994455
3	0xbd7890f6	-0.06068512
4	0x3e69727b	0.22797577
5	0xbdc742a3	-0.09729507
6	0x3eb6ae7b	0.35679993
7	0xbe70570b	-0.23470704
8	0xbe679de9	-0.22618832
9	0x3ec2960d	0.38005105
10	0x3ebe6116	0.37183446
11	0x3ec9f26c	0.39442766
12	0xbe66e9ba	-0.22550097
13	0xbea1e0e3	-0.31616887
14	0x3e0aba96	0.1354774
15	0x3ceaec2a	0.028677065
16	0xbe51b0b6	-0.20477566
17	0x3e992b5c	0.29915893
18	0xbd7d8415	-0.06189354
19	0xbeaa0291	-0.33205083

weight_hh_l0 f4 [20, 5]
0	0x3e3ba0a9	0.18323006
1	0x3ced7ac4	0.028989203
2	0xbba8c9f7	-0.005151029
3	0xbe9843c9	-0.29739216
4	0xbcd448f9	-0.025913702
5	0xbc23ad43	-0.009990039
6	0x3e92624e	0.28590626
7	0x3bb2ed58	0.0054604225
8	0x3dfe6959	0.12422437
9	0xbdd39632	-0.10331382
10	0xbe776aa9	-0.24161781
11	0x3aaef60e	0.0013348476
12	0x3e188aa4	0.14896637
13	0x3be9a68a	0.0071304487
14	0xbd906350	-0.07050192
15	0xbaf65dc2	-0.0018796253
16	0x3e618bf7	0.22026049
17	0x3ed402b4	0.41408312
18	0x3ee5a7ba	0.44854528
19	0xbd8337f7	-0.06407159
20	0x3f0a5751	0.54039484
21	0x3e03ac70	0.12858748
22	0x3de8d7be	0.113692746
23	0x3df0e323	0.11762073
24	0x3c5b12de	0.0133711975
25	0x3f15d539	0.58528477
26	0xbeb1f450	-0.34756708
27	0xbda07d25	-0.078363694
28	0x3e88fce0	0.26755428
29	0xbe9dbb79	-0.30807093
30	0x3e328575	0.17433722
31	0xbefb3223	-0.4906169
32	0xbcf8c8f7	-0.030369265
33	0x3b80aa42	0.0039265463
34	0xbee8c11b	-0.45459828
35	0x3dda749a	0.10666771
36	0xbd2da322	-0.042391904
37	0xbecbc654	-0.3979975
38	0xbe61e71e	-0.2206082
39	0xbf01905a	-0.5061089
40	0xbea5452c	-0.32279336
41	0x3edaeb40	0.42757607
42	0xbe25739e	-0.16157386
43	0x3eea56f8	0.45769477
44	0x3e8c6fc8	0.27429032
45	0xbdbb19d9	-0.091357894
46	0x3e15f974	0.1464594
47	0x3d665e4b	0.05624227
48	0xbeccc9a5	-0.39997593
49	0xbe2e4f1c	-0.17022365
50	0x3f045125	0.51686317
51	0xbe00c204	-0.12574011
52	0xbf055fb8	-0.5209918
53	0x3dfe5962	0.12419392
54	0x3e5fad7e	0.21843526
55	0xbe0c05e8	-0.13674128
56	0xbd9b9b9b	-0.07598039
57	0x3eb513ca	0.3536666
58	0xbdac9d56	-0.08428447
59	0x3e39331c	0.18085903
60	0xbd198fcc	-0.03749065
61	0x3e462cda	0.19353047
62	0x3e32bc62	0.17454675
63	0x3e950677	0.29106495
64	0x3ee05c6b	0.4382051
65	0x3efaa52e	0.48954147
66	0x3ea47c7b	0.3212622
67	0xbec3eba0	-0.38265705
68	0xbebb5ab4	-0.36592638
69	0xbda5130f	-0.08060276
70	0x3e06894c	0.13138312
71	0x3f0b31c3	0.54372805
72	0x3e8cdd6b	0.27512679
73	0x3d8c9f5d	0.06866334
74	0xbe879c78	-0.26486564
75	0xbd8f280c	-0.0699006
76	0x3eb450ec	0.35217988
77	0x3d7c28f4	0.061562493
78	0x3ea9e486	0.33182162
79	0x3ed2a136	0.4113862
80	0x3e0b5909	0.13608183
81	0xbeea9fdd	-0.4582509
82	0x3d29c509	0.041447673
83	0xbe9ed0cc	-0.31018674
84	0xbe5451d4	-0.2073434
85	0x3d87fbe4	0.06639841
86	0xbef517ad	-0.47869626
87	0xbc71cb2b	-0.014757912
88	0xbe1ed68b	-0.15511529
89	0x3d9f3e29	0.07775528
90	0x3eb7b91e	0.3588342
91	0xbde598fb	-0.11210819
92	0x3ea3c8a3	0.3198901
93	0x3e04e609	0.12978376
94	0x3e10d8e5	0.14145239
95	0x3e2bb49f	0.1676812
96	0xbecfd29a	-0.40590364
97	0xbef44cad	-0.4771475
98	0x3e583789	0.21114935
99	0xbe54f0fe	-0.20795056

bias_ih_l0 f4 [20]
0	0x3f0dda03	0.55410784
1	0x3ef811dd	0.4845113
2	0xbe4e21f9	-0.20130147
3	0x3eba4c75	0.36386457
4	0xbe796dc9	-0.24358286
5	0x3d8559bc	0.06511256
6	0xbe05c30e	-0.13062689
7	0x3eed652a	0.46366245
8	0xbe067347	-0.13129912
9	0x3c86ce5d	0.016455824
10	0x3e994fda	0.29943734
11	0xbefbce29	-0.49180725
12	0xbe7ea6d6	-0.2486833
13	0xbde3b146	-0.111177966
14	0xbeedaedc	-0.4642247
15	0x3d569a30	0.05239314
16	0xbe2c26ce	-0.16811678
17	0x3e84178d	0.25799218
18	0xbda484c4	-0.080331355
19	0x3ea128bd	0.31476393

bias_hh_l0 f4 [20]
0	0x3ef57e9e	0.47948164
1	0x3f171c8e	0.59027946
2	0xbdbcbc06	-0.0921555
3	0x3e4159df	0.1888194
4	0x3e144f79	0.14483441
5	0xbda0a8b4	-0.078446776
6	0x3d4373c5	0.04771783
7	0x3ec685e0	0.38774014
8	0xbea82b6c	-0.32845628
9	0x3eaa6f11	0.33287862
10	0xbe69c8fc	-0.22830576
11	0x3d49f91c	0.049309835
12	0xbe05ad09	-0.13054289
13	0x3c0b78d6	0.008512696
14	0xbf021a41	-0.5082131
15	0x3ee02b0c	0.43782842
16	0x3ee91db5	0.45530477
17	0x3f057a0f	0.5213937
18	0xbede4763	-0.4341384
19	0x3d16859d	0.036748517

weight f4 [1, 5]
0	0x3f0a4a21	0.5401936
1	0xbf05b2f5	-0.5222619
2	0xbf3659bf	-0.7123069
3	0x3e08cc7b	0.13359253
4	0xbebb5e01	-0.36595157
